#map = affine_map<(d0, d1) -> (d0, d1)>
#map1 = affine_map<(d0, d1) -> (d1, d0)>
#map2 = affine_map<(d0, d1, d2) -> (0, d1, d2)>
#map3 = affine_map<(d0, d1, d2) -> (d0, d1, d2)>
#map4 = affine_map<(d0, d1, d2) -> (d1, d2)>
#map5 = affine_map<(d0, d1, d2) -> (d2)>
#map6 = affine_map<(d0, d1, d2, d3) -> (d0, d1, d2, d3)>
#map7 = affine_map<(d0, d1, d2, d3) -> (d0, d2, d1, d3)>
#map8 = affine_map<(d0, d1, d2, d3) -> (d0, d1, d3, d2)>
#map9 = affine_map<(d0, d1, d2, d3) -> (0, d1, d2, d3)>
#map10 = affine_map<(d0, d1, d2, d3) -> (d0, d1, d2, 0)>
#map11 = affine_map<(d0, d1, d2, d3) -> (0, d1, d2, 0)>
module attributes {torch.debug_module_name = "SelfAttention"} {
  ml_program.global private mutable @global_seed(dense<0> : tensor<i64>) : tensor<i64>
  func.func @forward(%arg0: tensor<1x16x64xf32>) -> tensor<1x16x64xf32> {
    %cst = arith.constant dense<[… > : tensor<64xf32>
    %cst_0 = arith.constant dense<"…"> : tensor<64x64xf32>
    %cst_1 = arith.constant dense<[… > : tensor<64xf32>
    %cst_2 = arith.constant dense<"…"> : tensor<64x64xf32>
    %cst_3 = arith.constant dense<[… > : tensor<64xf32>
    %cst_4 = arith.constant dense<"…"> : tensor<64x64xf32>
    %cst_5 = arith.constant dense<[… > : tensor<64xf32>
    %cst_6 = arith.constant dense<"…"> : tensor<64x64xf32>
    %c0_i64 = arith.constant 0 : i64
    %cst_7 = arith.constant 0.000000e+00 : f32
    %cst_8 = arith.constant 0xFF800000 : f32
    %cst_9 = arith.constant 2.8284271247461903 : f64
    %0 = tensor.empty() : tensor<64x64xf32>
    %1 = linalg.generic {indexing_maps = [#map, #map1], iterator_types = ["parallel", "parallel"]} ins(%cst_6 : tensor<64x64xf32>) outs(%0 : tensor<64x64xf32>) {
    ^bb0(%in: f32, %out: f32):
      linalg.yield %in : f32
    } -> tensor<64x64xf32>
    %2 = tensor.empty() : tensor<1x16x64xf32>
    %3 = linalg.generic {indexing_maps = [#map2, #map3], iterator_types = ["parallel", "parallel", "parallel"]} ins(%arg0 : tensor<1x16x64xf32>) outs(%2 : tensor<1x16x64xf32>) {
    ^bb0(%in: f32, %out: f32):
      linalg.yield %in : f32
    } -> tensor<1x16x64xf32>
    %4 = tensor.empty() : tensor<1x64x64xf32>
    %5 = linalg.generic {indexing_maps = [#map4, #map3], iterator_types = ["parallel", "parallel", "parallel"]} ins(%1 : tensor<64x64xf32>) outs(%4 : tensor<1x64x64xf32>) {
    ^bb0(%in: f32, %out: f32):
      linalg.yield %in : f32
    } -> tensor<1x64x64xf32>
    %6 = linalg.fill ins(%cst_7 : f32) outs(%2 : tensor<1x16x64xf32>) -> tensor<1x16x64xf32>
    %7 = linalg.batch_matmul ins(%3, %5 : tensor<1x16x64xf32>, tensor<1x64x64xf32>) outs(%6 : tensor<1x16x64xf32>) -> tensor<1x16x64xf32>
    %8 = linalg.generic {indexing_maps = [#map2, #map5, #map3], iterator_types = ["parallel", "parallel", "parallel"]} ins(%7, %cst_5 : tensor<1x16x64xf32>, tensor<64xf32>) outs(%2 : tensor<1x16x64xf32>) {
    ^bb0(%in: f32, %in_18: f32, %out: f32):
      %52 = arith.addf %in, %in_18 : f32
      linalg.yield %52 : f32
    } -> tensor<1x16x64xf32>
    %expanded = tensor.expand_shape %8 [[0], [1], [2, 3]] output_shape [1, 16, 8, 8] : tensor<1x16x64xf32> into tensor<1x16x8x8xf32>
    %9 = linalg.generic {indexing_maps = [#map, #map1], iterator_types = ["parallel", "parallel"]} ins(%cst_4 : tensor<64x64xf32>) outs(%0 : tensor<64x64xf32>) {
    ^bb0(%in: f32, %out: f32):
      linalg.yield %in : f32
    } -> tensor<64x64xf32>
    %10 = linalg.generic {indexing_maps = [#map4, #map3], iterator_types = ["parallel", "parallel", "parallel"]} ins(%9 : tensor<64x64xf32>) outs(%4 : tensor<1x64x64xf32>) {
    ^bb0(%in: f32, %out: f32):
      linalg.yield %in : f32
    } -> tensor<1x64x64xf32>
    %11 = linalg.batch_matmul ins(%3, %10 : tensor<1x16x64xf32>, tensor<1x64x64xf32>) outs(%6 : tensor<1x16x64xf32>) -> tensor<1x16x64xf32>
    %12 = linalg.generic {indexing_maps = [#map2, #map5, #map3], iterator_types = ["parallel", "parallel", "parallel"]} ins(%11, %cst_3 : tensor<1x16x64xf32>, tensor<64xf32>) outs(%2 : tensor<1x16x64xf32>) {
    ^bb0(%in: f32, %in_18: f32, %out: f32):
      %52 = arith.addf %in, %in_18 : f32
      linalg.yield %52 : f32
    } -> tensor<1x16x64xf32>
    %expanded_10 = tensor.expand_shape %12 [[0], [1], [2, 3]] output_shape [1, 16, 8, 8] : tensor<1x16x64xf32> into tensor<1x16x8x8xf32>
    %13 = linalg.generic {indexing_maps = [#map, #map1], iterator_types = ["parallel", "parallel"]} ins(%cst_2 : tensor<64x64xf32>) outs(%0 : tensor<64x64xf32>) {
    ^bb0(%in: f32, %out: f32):
      linalg.yield %in : f32
    } -> tensor<64x64xf32>
    %14 = linalg.generic {indexing_maps = [#map4, #map3], iterator_types = ["parallel", "parallel", "parallel"]} ins(%13 : tensor<64x64xf32>) outs(%4 : tensor<1x64x64xf32>) {
    ^bb0(%in: f32, %out: f32):
      linalg.yield %in : f32
    } -> tensor<1x64x64xf32>
    %15 = linalg.batch_matmul ins(%3, %14 : tensor<1x16x64xf32>, tensor<1x64x64xf32>) outs(%6 : tensor<1x16x64xf32>) -> tensor<1x16x64xf32>
    %16 = linalg.generic {indexing_maps = [#map2, #map5, #map3], iterator_types = ["parallel", "parallel", "parallel"]} ins(%15, %cst_1 : tensor<1x16x64xf32>, tensor<64xf32>) outs(%2 : tensor<1x16x64xf32>) {
    ^bb0(%in: f32, %in_18: f32, %out: f32):
      %52 = arith.addf %in, %in_18 : f32
      linalg.yield %52 : f32
    } -> tensor<1x16x64xf32>
    %expanded_11 = tensor.expand_shape %16 [[0], [1], [2, 3]] output_shape [1, 16, 8, 8] : tensor<1x16x64xf32> into tensor<1x16x8x8xf32>
    %17 = tensor.empty() : tensor<1x8x16x8xf32>
    %18 = linalg.generic {indexing_maps = [#map6, #map7], iterator_types = ["parallel", "parallel", "parallel", "parallel"]} ins(%expanded : tensor<1x16x8x8xf32>) outs(%17 : tensor<1x8x16x8xf32>) {
    ^bb0(%in: f32, %out: f32):
      linalg.yield %in : f32
    } -> tensor<1x8x16x8xf32>
    %19 = linalg.generic {indexing_maps = [#map6, #map7], iterator_types = ["parallel", "parallel", "parallel", "parallel"]} ins(%expanded_10 : tensor<1x16x8x8xf32>) outs(%17 : tensor<1x8x16x8xf32>) {
    ^bb0(%in: f32, %out: f32):
      linalg.yield %in : f32
    } -> tensor<1x8x16x8xf32>
    %20 = linalg.generic {indexing_maps = [#map6, #map7], iterator_types = ["parallel", "parallel", "parallel", "parallel"]} ins(%expanded_11 : tensor<1x16x8x8xf32>) outs(%17 : tensor<1x8x16x8xf32>) {
    ^bb0(%in: f32, %out: f32):
      linalg.yield %in : f32
    } -> tensor<1x8x16x8xf32>
    %21 = tensor.empty() : tensor<1x8x8x16xf32>
    %22 = linalg.generic {indexing_maps = [#map6, #map8], iterator_types = ["parallel", "parallel", "parallel", "parallel"]} ins(%19 : tensor<1x8x16x8xf32>) outs(%21 : tensor<1x8x8x16xf32>) {
    ^bb0(%in: f32, %out: f32):
      linalg.yield %in : f32
    } -> tensor<1x8x8x16xf32>
    %23 = linalg.generic {indexing_maps = [#map9, #map6], iterator_types = ["parallel", "parallel", "parallel", "parallel"]} ins(%18 : tensor<1x8x16x8xf32>) outs(%17 : tensor<1x8x16x8xf32>) {
    ^bb0(%in: f32, %out: f32):
      linalg.yield %in : f32
    } -> tensor<1x8x16x8xf32>
    %24 = linalg.generic {indexing_maps = [#map9, #map6], iterator_types = ["parallel", "parallel", "parallel", "parallel"]} ins(%22 : tensor<1x8x8x16xf32>) outs(%21 : tensor<1x8x8x16xf32>) {
    ^bb0(%in: f32, %out: f32):
      linalg.yield %in : f32
    } -> tensor<1x8x8x16xf32>
    %collapsed = tensor.collapse_shape %23 [[0, 1], [2], [3]] : tensor<1x8x16x8xf32> into tensor<8x16x8xf32>
    %collapsed_12 = tensor.collapse_shape %24 [[0, 1], [2], [3]] : tensor<1x8x8x16xf32> into tensor<8x8x16xf32>
    %25 = tensor.empty() : tensor<8x16x16xf32>
    %26 = linalg.fill ins(%cst_7 : f32) outs(%25 : tensor<8x16x16xf32>) -> tensor<8x16x16xf32>
    %27 = linalg.batch_matmul ins(%collapsed, %collapsed_12 : tensor<8x16x8xf32>, tensor<8x8x16xf32>) outs(%26 : tensor<8x16x16xf32>) -> tensor<8x16x16xf32>
    %expanded_13 = tensor.expand_shape %27 [[0, 1], [2], [3]] output_shape [1, 16, 8, 8] : tensor<8x16x16xf32> into tensor<1x8x16x16xf32>
    %28 = tensor.empty() : tensor<1x8x16x16xf32>
    %29 = linalg.generic {indexing_maps = [#map9, #map6], iterator_types = ["parallel", "parallel", "parallel", "parallel"]} ins(%expanded_13 : tensor<1x8x16x16xf32>) outs(%28 : tensor<1x8x16x16xf32>) {
    ^bb0(%in: f32, %out: f32):
      %52 = arith.truncf %cst_9 : f64 to f32
      %53 = arith.divf %in, %52 : f32
      linalg.yield %53 : f32
    } -> tensor<1x8x16x16xf32>
    %30 = tensor.empty() : tensor<1x8x16x1xi64>
    %31 = linalg.fill ins(%c0_i64 : i64) outs(%30 : tensor<1x8x16x1xi64>) -> tensor<1x8x16x1xi64>
    %32 = tensor.empty() : tensor<1x8x16x1xf32>
    %33 = linalg.fill ins(%cst_8 : f32) outs(%32 : tensor<1x8x16x1xf32>) -> tensor<1x8x16x1xf32>
    %34:2 = linalg.generic {indexing_maps = [#map6, #map10, #map10], iterator_types = ["parallel", "parallel", "parallel", "reduction"]} ins(%29 : tensor<1x8x16x16xf32>) outs(%33, %31 : tensor<1x8x16x1xf32>, tensor<1x8x16x1xi64>) {
    ^bb0(%in: f32, %out: f32, %out_18: i64):
      %52 = linalg.index 3 : index
      %53 = arith.index_cast %52 : index to i64
      %54 = arith.maximumf %in, %out : f32
      %55 = arith.cmpf ogt, %in, %out : f32
      %56 = arith.select %55, %53, %out_18 : i64
      linalg.yield %54, %56 : f32, i64
    } -> (tensor<1x8x16x1xf32>, tensor<1x8x16x1xi64>)
    %35 = linalg.generic {indexing_maps = [#map9, #map11, #map6], iterator_types = ["parallel", "parallel", "parallel", "parallel"]} ins(%29, %34#0 : tensor<1x8x16x16xf32>, tensor<1x8x16x1xf32>) outs(%28 : tensor<1x8x16x16xf32>) {
    ^bb0(%in: f32, %in_18: f32, %out: f32):
      %52 = arith.subf %in, %in_18 : f32
      linalg.yield %52 : f32
    } -> tensor<1x8x16x16xf32>
    %36 = linalg.generic {indexing_maps = [#map9, #map6], iterator_types = ["parallel", "parallel", "parallel", "parallel"]} ins(%35 : tensor<1x8x16x16xf32>) outs(%28 : tensor<1x8x16x16xf32>) {
    ^bb0(%in: f32, %out: f32):
      %52 = math.exp %in : f32
      linalg.yield %52 : f32
    } -> tensor<1x8x16x16xf32>
    %37 = linalg.fill ins(%cst_7 : f32) outs(%32 : tensor<1x8x16x1xf32>) -> tensor<1x8x16x1xf32>
    %38 = linalg.generic {indexing_maps = [#map6, #map10], iterator_types = ["parallel", "parallel", "parallel", "reduction"]} ins(%36 : tensor<1x8x16x16xf32>) outs(%37 : tensor<1x8x16x1xf32>) {
    ^bb0(%in: f32, %out: f32):
      %52 = arith.addf %in, %out : f32
      linalg.yield %52 : f32
    } -> tensor<1x8x16x1xf32>
    %39 = linalg.generic {indexing_maps = [#map9, #map11, #map6], iterator_types = ["parallel", "parallel", "parallel", "parallel"]} ins(%36, %38 : tensor<1x8x16x16xf32>, tensor<1x8x16x1xf32>) outs(%28 : tensor<1x8x16x16xf32>) {
    ^bb0(%in: f32, %in_18: f32, %out: f32):
      %52 = arith.divf %in, %in_18 : f32
      linalg.yield %52 : f32
    } -> tensor<1x8x16x16xf32>
    %40 = linalg.generic {indexing_maps = [#map9, #map6], iterator_types = ["parallel", "parallel", "parallel", "parallel"]} ins(%39 : tensor<1x8x16x16xf32>) outs(%28 : tensor<1x8x16x16xf32>) {
    ^bb0(%in: f32, %out: f32):
      linalg.yield %in : f32
    } -> tensor<1x8x16x16xf32>
    %41 = linalg.generic {indexing_maps = [#map9, #map6], iterator_types = ["parallel", "parallel", "parallel", "parallel"]} ins(%20 : tensor<1x8x16x8xf32>) outs(%17 : tensor<1x8x16x8xf32>) {
    ^bb0(%in: f32, %out: f32):
      linalg.yield %in : f32
    } -> tensor<1x8x16x8xf32>
    %collapsed_14 = tensor.collapse_shape %40 [[0, 1], [2], [3]] : tensor<1x8x16x16xf32> into tensor<8x16x16xf32>
    %collapsed_15 = tensor.collapse_shape %41 [[0, 1], [2], [3]] : tensor<1x8x16x8xf32> into tensor<8x16x8xf32>
    %42 = tensor.empty() : tensor<8x16x8xf32>
    %43 = linalg.fill ins(%cst_7 : f32) outs(%42 : tensor<8x16x8xf32>) -> tensor<8x16x8xf32>
    %44 = linalg.batch_matmul ins(%collapsed_14, %collapsed_15 : tensor<8x16x16xf32>, tensor<8x16x8xf32>) outs(%43 : tensor<8x16x8xf32>) -> tensor<8x16x8xf32>
    %expanded_16 = tensor.expand_shape %44 [[0, 1], [2], [3]] output_shape [1, 16, 8, 8] : tensor<8x16x8xf32> into tensor<1x8x16x8xf32>
    %45 = tensor.empty() : tensor<1x16x8x8xf32>
    %46 = linalg.generic {indexing_maps = [#map6, #map7], iterator_types = ["parallel", "parallel", "parallel", "parallel"]} ins(%expanded_16 : tensor<1x8x16x8xf32>) outs(%45 : tensor<1x16x8x8xf32>) {
    ^bb0(%in: f32, %out: f32):
      linalg.yield %in : f32
    } -> tensor<1x16x8x8xf32>
    %collapsed_17 = tensor.collapse_shape %46 [[0], [1], [2, 3]] : tensor<1x16x8x8xf32> into tensor<1x16x64xf32>
    %47 = linalg.generic {indexing_maps = [#map, #map1], iterator_types = ["parallel", "parallel"]} ins(%cst_0 : tensor<64x64xf32>) outs(%0 : tensor<64x64xf32>) {
    ^bb0(%in: f32, %out: f32):
      linalg.yield %in : f32
    } -> tensor<64x64xf32>
    %48 = linalg.generic {indexing_maps = [#map2, #map3], iterator_types = ["parallel", "parallel", "parallel"]} ins(%collapsed_17 : tensor<1x16x64xf32>) outs(%2 : tensor<1x16x64xf32>) {
    ^bb0(%in: f32, %out: f32):
      linalg.yield %in : f32
    } -> tensor<1x16x64xf32>
    %49 = linalg.generic {indexing_maps = [#map4, #map3], iterator_types = ["parallel", "parallel", "parallel"]} ins(%47 : tensor<64x64xf32>) outs(%4 : tensor<1x64x64xf32>) {
    ^bb0(%in: f32, %out: f32):
      linalg.yield %in : f32
    } -> tensor<1x64x64xf32>
    %50 = linalg.batch_matmul ins(%48, %49 : tensor<1x16x64xf32>, tensor<1x64x64xf32>) outs(%6 : tensor<1x16x64xf32>) -> tensor<1x16x64xf32>
    %51 = linalg.generic {indexing_maps = [#map2, #map5, #map3], iterator_types = ["parallel", "parallel", "parallel"]} ins(%50, %cst : tensor<1x16x64xf32>, tensor<64xf32>) outs(%2 : tensor<1x16x64xf32>) {
    ^bb0(%in: f32, %in_18: f32, %out: f32):
      %52 = arith.addf %in, %in_18 : f32
      linalg.yield %52 : f32
    } -> tensor<1x16x64xf32>
    return %51 : tensor<1x16x64xf32>
  }
}

