module attributes {torch.debug_module_name = "SelfAttention"} {
  func.func @forward(%arg0: !torch.vtensor<[1,16,64],f32>) -> !torch.vtensor<[1,16,64],f32> {
    %none = torch.constant.none
    %true = torch.constant.bool true
    %float1.000000e00 = torch.constant.float 1.000000e+00
    %0 = torch.vtensor.literal(dense<[… > : tensor<64xf32>) : !torch.vtensor<[64],f32>
    %1 = torch.vtensor.literal(dense<"…"> : tensor<64x64xf32>) : !torch.vtensor<[64,64],f32>
    %2 = torch.vtensor.literal(dense<[… > : tensor<64xf32>) : !torch.vtensor<[64],f32>
    %3 = torch.vtensor.literal(dense<"…"> : tensor<64x64xf32>) : !torch.vtensor<[64,64],f32>
    %4 = torch.vtensor.literal(dense<[… > : tensor<64xf32>) : !torch.vtensor<[64],f32>
    %5 = torch.vtensor.literal(dense<"…"> : tensor<64x64xf32>) : !torch.vtensor<[64,64],f32>
    %6 = torch.vtensor.literal(dense<[… > : tensor<64xf32>) : !torch.vtensor<[64],f32>
    %7 = torch.vtensor.literal(dense<"…"> : tensor<64x64xf32>) : !torch.vtensor<[64,64],f32>
    %float2.828430e00 = torch.constant.float 2.8284271247461903
    %int8 = torch.constant.int 8
    %int64 = torch.constant.int 64
    %int16 = torch.constant.int 16
    %int3 = torch.constant.int 3
    %int1 = torch.constant.int 1
    %int2 = torch.constant.int 2
    %int0 = torch.constant.int 0
    %int-2 = torch.constant.int -2
    %int-1 = torch.constant.int -1
    %8 = torch.aten.transpose.int %7, %int0, %int1 : !torch.vtensor<[64,64],f32>, !torch.int, !torch.int -> !torch.vtensor<[64,64],f32>
    %9 = torch.aten.matmul %arg0, %8 : !torch.vtensor<[1,16,64],f32>, !torch.vtensor<[64,64],f32> -> !torch.vtensor<[1,16,64],f32>
    %10 = torch.aten.add.Tensor %9, %6, %float1.000000e00 : !torch.vtensor<[1,16,64],f32>, !torch.vtensor<[64],f32>, !torch.float -> !torch.vtensor<[1,16,64],f32>
    %11 = torch.prim.ListConstruct %int1, %int16, %int8, %int8 : (!torch.int, !torch.int, !torch.int, !torch.int) -> !torch.list<int>
    %12 = torch.aten.view %10, %11 : !torch.vtensor<[1,16,64],f32>, !torch.list<int> -> !torch.vtensor<[1,16,8,8],f32>
    %13 = torch.aten.transpose.int %5, %int0, %int1 : !torch.vtensor<[64,64],f32>, !torch.int, !torch.int -> !torch.vtensor<[64,64],f32>
    %14 = torch.aten.matmul %arg0, %13 : !torch.vtensor<[1,16,64],f32>, !torch.vtensor<[64,64],f32> -> !torch.vtensor<[1,16,64],f32>
    %15 = torch.aten.add.Tensor %14, %4, %float1.000000e00 : !torch.vtensor<[1,16,64],f32>, !torch.vtensor<[64],f32>, !torch.float -> !torch.vtensor<[1,16,64],f32>
    %16 = torch.aten.view %15, %11 : !torch.vtensor<[1,16,64],f32>, !torch.list<int> -> !torch.vtensor<[1,16,8,8],f32>
    %17 = torch.aten.transpose.int %3, %int0, %int1 : !torch.vtensor<[64,64],f32>, !torch.int, !torch.int -> !torch.vtensor<[64,64],f32>
    %18 = torch.aten.matmul %arg0, %17 : !torch.vtensor<[1,16,64],f32>, !torch.vtensor<[64,64],f32> -> !torch.vtensor<[1,16,64],f32>
    %19 = torch.aten.add.Tensor %18, %2, %float1.000000e00 : !torch.vtensor<[1,16,64],f32>, !torch.vtensor<[64],f32>, !torch.float -> !torch.vtensor<[1,16,64],f32>
    %20 = torch.aten.view %19, %11 : !torch.vtensor<[1,16,64],f32>, !torch.list<int> -> !torch.vtensor<[1,16,8,8],f32>
    %21 = torch.prim.ListConstruct %int0, %int2, %int1, %int3 : (!torch.int, !torch.int, !torch.int, !torch.int) -> !torch.list<int>
    %22 = torch.aten.permute %12, %21 : !torch.vtensor<[1,16,8,8],f32>, !torch.list<int> -> !torch.vtensor<[1,8,16,8],f32>
    %23 = torch.aten.permute %16, %21 : !torch.vtensor<[1,16,8,8],f32>, !torch.list<int> -> !torch.vtensor<[1,8,16,8],f32>
    %24 = torch.aten.permute %20, %21 : !torch.vtensor<[1,16,8,8],f32>, !torch.list<int> -> !torch.vtensor<[1,8,16,8],f32>
    %25 = torch.aten.transpose.int %23, %int-2, %int-1 : !torch.vtensor<[1,8,16,8],f32>, !torch.int, !torch.int -> !torch.vtensor<[1,8,8,16],f32>
    %26 = torch.aten.matmul %22, %25 : !torch.vtensor<[1,8,16,8],f32>, !torch.vtensor<[1,8,8,16],f32> -> !torch.vtensor<[1,8,16,16],f32>
    %27 = torch.aten.div.Scalar %26, %float2.828430e00 : !torch.vtensor<[1,8,16,16],f32>, !torch.float -> !torch.vtensor<[1,8,16,16],f32>
    %values, %indices = torch.aten.max.dim %27, %int-1, %true : !torch.vtensor<[1,8,16,16],f32>, !torch.int, !torch.bool -> !torch.vtensor<[1,8,16,1],f32>, !torch.vtensor<[1,8,16,1],si64>
    %28 = torch.aten.sub.Tensor %27, %values, %float1.000000e00 : !torch.vtensor<[1,8,16,16],f32>, !torch.vtensor<[1,8,16,1],f32>, !torch.float -> !torch.vtensor<[1,8,16,16],f32>
    %29 = torch.aten.exp %28 : !torch.vtensor<[1,8,16,16],f32> -> !torch.vtensor<[1,8,16,16],f32>
    %30 = torch.prim.ListConstruct %int-1 : (!torch.int) -> !torch.list<int>
    %31 = torch.aten.sum.dim_IntList %29, %30, %true, %none : !torch.vtensor<[1,8,16,16],f32>, !torch.list<int>, !torch.bool, !torch.none -> !torch.vtensor<[1,8,16,1],f32>
    %32 = torch.aten.div.Tensor %29, %31 : !torch.vtensor<[1,8,16,16],f32>, !torch.vtensor<[1,8,16,1],f32> -> !torch.vtensor<[1,8,16,16],f32>
    %33 = torch.aten.matmul %32, %24 : !torch.vtensor<[1,8,16,16],f32>, !torch.vtensor<[1,8,16,8],f32> -> !torch.vtensor<[1,8,16,8],f32>
    %34 = torch.aten.permute %33, %21 : !torch.vtensor<[1,8,16,8],f32>, !torch.list<int> -> !torch.vtensor<[1,16,8,8],f32>
    %35 = torch.aten.contiguous %34, %int0 : !torch.vtensor<[1,16,8,8],f32>, !torch.int -> !torch.vtensor<[1,16,8,8],f32>
    %36 = torch.prim.ListConstruct %int1, %int16, %int64 : (!torch.int, !torch.int, !torch.int) -> !torch.list<int>
    %37 = torch.aten.view %35, %36 : !torch.vtensor<[1,16,8,8],f32>, !torch.list<int> -> !torch.vtensor<[1,16,64],f32>
    %38 = torch.aten.transpose.int %1, %int0, %int1 : !torch.vtensor<[64,64],f32>, !torch.int, !torch.int -> !torch.vtensor<[64,64],f32>
    %39 = torch.aten.matmul %37, %38 : !torch.vtensor<[1,16,64],f32>, !torch.vtensor<[64,64],f32> -> !torch.vtensor<[1,16,64],f32>
    %40 = torch.aten.add.Tensor %39, %0, %float1.000000e00 : !torch.vtensor<[1,16,64],f32>, !torch.vtensor<[64],f32>, !torch.float -> !torch.vtensor<[1,16,64],f32>
    return %40 : !torch.vtensor<[1,16,64],f32>
  }
}
